FederatedLearning/L2/my_centralized_model/adapter_model.bin (torch, 791378 bytes, 12 tensors)

base_model.model.gpt_neox.layers.0.attention.query_key_value.lora_A.weight f4 [16, 512]
0	0x3cc73f4a	0.02432217
1	0xbcb4b2a2	-0.022057835
2	0xbd2c2020	-0.042022824
3	0xbcdd8bf8	-0.027044281
4	0x3c8304bb	0.015993467
5	0xbc70630e	-0.014672054
6	0x3be607f1	0.0070199897
7	0xbb59696e	-0.0033174413
8	0x3d0edf47	0.034880903
9	0xbd071b58	-0.03298506
10	0x3c6373fd	0.013882634
11	0xbd1a53ef	-0.0376777
12	0xbcc7da4c	-0.024396084
13	0xbcda74f6	-0.0266671
14	0x3d171fcf	0.03689557
15	0x3d2ea239	0.042635176
16	0x3cc7bf92	0.02438334
17	0x3cc255b9	0.023722516
18	0xbca676f6	-0.020320397
19	0xbd2caafb	-0.042155247
20	0x3cddd9bd	0.027081365
21	0xbce8236e	-0.028337207
22	0x3ccf95f7	0.025340063
23	0x3ca4efe2	0.020133916
24	0xbd01a2d2	-0.03164942
25	0xbb2e8d4f	-0.002663452
26	0xbc21b3be	-0.009869514
27	0x3bf7947b	0.007555542
28	0x3bb6a111	0.0055734
29	0x3d28bad0	0.041193783
30	0xbcad26c7	-0.021136655
31	0x3ce4eae8	0.027944043
32	0xbd07b059	-0.033127163
33	0xbcae8978	-0.021305785
34	0x3d0752b8	0.03303787
35	0x3cffc250	0.031220585
36	0x3c918956	0.017765682
37	0x3ce1bb6f	0.027555196
38	0xbcf46d78	-0.029837355
39	0xbab395ae	-0.0013701224
40	0x3cc583fe	0.02411079
41	0xbd1f40bd	-0.0388801
42	0xbc44ebe6	-0.012019133
43	0xbd0ac7df	-0.03388202
44	0xbcb37b78	-0.02190946
45	0x3bda087c	0.0066538434
46	0xbd08d7ce	-0.033408932
47	0x3d303e26	0.04302802
48	0x3caccbc5	0.021093259
49	0x3c99869d	0.018740946
50	0xbcadc354	-0.021211304
51	0xbd31326f	-0.043260988
52	0x3cd96203	0.026535993
53	0xbd24fe69	-0.040281687
54	0xbcd02aa5	-0.02541096
55	0xbce02c88	-0.027364984
56	0xbc837fc3	-0.016052132
57	0x3ce4a0ab	0.027908644
58	0x3bf892b4	0.0075858478
59	0xbd02103d	-0.031753767
60	0x3d0c890a	0.034310378
61	0x3cb8def7	0.022567255
62	0xbd1d8dc5	-0.03846528
63	0x3cb3f6d5	0.021968285
64	0x3c39623a	0.011314923
65	0xbcbf7eae	-0.023375835
66	0xbcecaaea	-0.028890092
67	0x3c61a77c	0.013772842
68	0x3cc956cc	0.02457752
69	0xbd318605	-0.0433407
70	0x3c1d3910	0.009596124
71	0x3c115bda	0.008871997
72	0x3cfec278	0.03109859
73	0xbc8be691	-0.017077716
74	0x3ca00b73	0.01953671
75	0x3d035044	0.03205897
76	0xbcd59615	-0.026072541
77	0xbc826962	-0.015919391
78	0xbcc3ac6d	-0.02388593
79	0xbcf006eb	-0.029300174
80	0x3ceeb864	0.029140659
81	0x3c398244	0.011322562
82	0x3a03b526	0.00050242466
83	0x3cd79f2c	0.026321016
84	0xbd269fe8	-0.040679842
85	0xbb9562ee	-0.0045589125
86	0xbd28de91	-0.04122788
87	0x3b92452d	0.004463813
88	0x3cd8a8f5	0.026447752
89	0xbca536ba	-0.020167697
90	0xbd15c0d1	-0.036560837
91	0x3c211099	0.009830617
92	0xbbbc0d60	-0.005738899
93	0xbcfa0885	-0.03052164
94	0x3d01250c	0.03152947
95	0xbc16a497	-0.009194515
96	0x3d0486b4	0.032355025
97	0x3c67c4e9	0.014146068
98	0xbd123ef5	-0.03570457
99	0x3c89ce7b	0.01682209
100	0xbc3a20f9	-0.0113604
101	0x3c16394b	0.009168933
102	0x3cc27ad6	0.023740213
103	0x3c00f029	0.007869759
104	0xba549ee4	-0.0008110835
105	0x3d11b286	0.035570644
106	0x3d1417eb	0.036155622
107	0x3d032f6e	0.032027654
108	0xbceebb69	-0.029142099
109	0xbba1b392	-0.0049347365
110	0x3bc766b0	0.0060852394
111	0xbd099b24	-0.03359522
112	0xbcb5e71f	-0.022204934
113	0x3bb8dce4	0.0056415666
114	0x3ca55e54	0.02018658
115	0x3d284157	0.041077938
116	0xbc84981d	-0.016185815
117	0xbc42dde0	-0.011893719
118	0xbc319c45	-0.01084048
119	0x3d0cf4f1	0.03441328
120	0x3d2f1136	0.042741023
121	0x3ca4eed5	0.020133415
122	0x3d334981	0.04377127
123	0x3c910afd	0.017705435
124	0x3d282f08	0.041060477
125	0x3ae763b7	0.0017653619
126	0x3c93e513	0.018053567
127	0xbc2c61b2	-0.010521339
128	0xbce96c92	-0.028494153
129	0x3c886a08	0.016652122
130	0x3c34b8f6	0.011030426
131	0x3b1350f5	0.0022478674
132	0x3cfe7e4c	0.031066082
133	0xbcc52820	-0.024066985
134	0xbc9787fb	-0.018497458
135	0xbd136501	-0.035984997
136	0x3d212362	0.039340384
137	0x3c832f5f	0.0160138
138	0x3c54b3c6	0.012982314
139	0x3cd216c6	0.025645625
140	0xbc77edac	-0.015132349
141	0x3d232075	0.039825875
142	0xbc6b0c09	-0.014346131
143	0x3be7da3d	0.0070755766
144	0x3ce820d2	0.028335962
145	0x3c6e3145	0.014538114
146	0xbcba4eaf	-0.022742597
147	0xbc7dc404	-0.015488628
148	0xbd080083	-0.033203613
149	0xbd29d3e1	-0.04146183
150	0x3cf23a6f	0.029568879
151	0xbd1598af	-0.036522564
152	0xbcdae607	-0.026721014
153	0xbcf9c069	-0.030487256
154	0x3d37ca7f	0.04487085
155	0x3cac7af4	0.021054722
156	0x3d1f9408	0.038959533
157	0xbb318fb0	-0.00270937
158	0xbd2ae8bc	-0.04172586
159	0xbcfde8e9	-0.03099485
160	0x3ca8fd3c	0.020628564
161	0x3cff5764	0.0311696
162	0x3cfdcf72	0.030982707
163	0x3c735f6e	0.014854295
164	0xbd321600	-0.043478012
165	0xbcb69e2b	-0.022292217
166	0xbcf0ad85	-0.029379616
167	0x3ce67962	0.028134052
168	0x3d323637	0.043508735
169	0xbd1519a8	-0.03640142
170	0x3ce9a5f0	0.028521508
171	0x3c38b2ae	0.011273069
172	0xbaa063a7	-0.001223673
173	0xbcf77ddd	-0.030211383
174	0x3bbf4bf3	0.0058379113
175	0x3d25a7b6	0.040443145
176	0xbc89f3ac	-0.016839825
177	0xbccd8262	-0.025086585
178	0xbc0d58ed	-0.008627159
179	0xb98c1c80	-0.00026724115
180	0x3cb03207	0.02150823
181	0x3cabf2f5	0.020989874
182	0x3ce84980	0.02835536
183	0xbc614e67	-0.013751603
184	0x3c8ccb21	0.017186703
185	0x3c5b8dd6	0.013400516
186	0xbc42adb7	-0.011882237
187	0x3c39cf66	0.011340952
188	0xbd12e71f	-0.035864946
189	0xbb4d3fde	-0.0031318585
190	0x3d0b193e	0.03395962
191	0x3bec6728	0.0072144456
192	0xbc643fad	-0.013931197
193	0x3d053e34	0.032530025
194	0xba28eaa3	-0.0006443655
195	0x3c99dbad	0.018781507
196	0xbd0320c5	-0.032013673
197	0x3c34cd0f	0.011035218
198	0xbc8c72b7	-0.017144544
199	0xbaebeebe	-0.0018000228
200	0xbd081683	-0.033224594
201	0x3ccb2a06	0.024800312
202	0x3d0a4c73	0.033764314
203	0x3b72a462	0.003702425
204	0xbcbe0007	-0.023193372
205	0x3cdf9e54	0.027297176
206	0xbba66c1c	-0.0050788056
207	0x3c2af5ff	0.010434627
208	0xbab59ae8	-0.001385537
209	0x3d18c0d6	0.037293278
210	0x3cc2283a	0.023700822
211	0x3c5df4ec	0.013547163
212	0xbad87fa9	-0.0016517538
213	0x3c569136	0.013096144
214	0xbd038d4f	-0.032117184
215	0x3cf1b17a	0.029503573
216	0xbd352937	-0.04422876
217	0x3d373e94	0.044737414
218	0x3c24c7ec	0.010057431
219	0xbc11ec53	-0.008906442
220	0x3c936fcd	0.017997647
221	0xbd04fac0	-0.032465696
222	0x3ce6d1a4	0.028176136
223	0xbd067080	-0.032822132
224	0xbd028d97	-0.03187331
225	0x3cb25275	0.021767834
226	0x3ce38e80	0.02777791
227	0x3d21121a	0.039323904
228	0x3d2854a6	0.041096352
229	0x3d129d1b	0.03579436
230	0xbb242dc7	-0.00250517
231	0xbc270a26	-0.010195291
232	0xba882ec8	-0.0010389918
233	0x3cc0bb27	0.023526741
234	0x3d31948e	0.043354563
235	0x3c8bb8f2	0.017055962
236	0xbca4f97e	-0.020138498
237	0x3d323656	0.04350885
238	0x3ca5428b	0.020173332
239	0x3bc540bd	0.0060196803
240	0x3d23eb67	0.04001942
241	0xbb090898	-0.0020909663
242	0x3cad4f5f	0.021156011
243	0xbcff72b8	-0.031182632
244	0xbc26bc60	-0.010176748
245	0x3c692470	0.014229879
246	0x3bcceb95	0.0062536695
247	0x3cf48be7	0.029851867
248	0xbc1ed7f5	-0.009695043
249	0x3cb44409	0.022005098
250	0x3cd6829d	0.026185328
251	0xbcc6d2a4	-0.024270363
252	0x3cf2a036	0.02961741
253	0xbc9def4e	-0.019279148
254	0xbc5b090c	-0.013368856
255	0x3cc74350	0.02432409

base_model.model.gpt_neox.layers.0.attention.query_key_value.lora_B.weight f4 [1536, 16]
0	0xbaad20c0	-0.0013208613
1	0xba1a40f6	-0.0005884314
2	0x38c4860a	9.370975e-05
3	0x3aa9ed71	0.001296444
4	0x3ab7ef57	0.0014033121
5	0xba6dc42a	-0.0009070063
6	0x39c0bba2	0.0003676089
7	0xba3439fd	-0.0006875096
8	0xbac0454a	-0.0014669087
9	0xb84dcaa0	-4.9064518e-05
10	0x3a99416a	0.0011692469
11	0xbaaaae60	-0.0013021939
12	0xb998eff2	-0.00029170472
13	0x39a5f2c5	0.0003165213
14	0xb9eeae4a	-0.00045524753
15	0x3aad8fd2	0.0013241714
16	0xbaa5c3a0	-0.0012646802
17	0xb7c64e49	-2.3639894e-05
18	0xba44c1c3	-0.00075056794
19	0x3aabf2f3	0.0013118669
20	0xba029fe1	-0.000498293
21	0x3a5728b8	0.00082076667
22	0x399f5a01	0.000303939
23	0xbaa4af2a	-0.001256441
24	0x3a280a4d	0.00064102263
25	0xb98480b0	-0.00025272882
26	0x3981e1ce	0.00024773035
27	0xba9657ff	-0.0011470317
28	0x3ac01a90	0.0014656354
29	0x384965f9	4.8017104e-05
30	0xbabc680d	-0.0014374271
31	0x38022a57	3.1033847e-05
32	0xb9105d3b	-0.00013767641
33	0xb786bb15	-1.6061162e-05
34	0xba80e9d8	-0.0009835316
35	0xba97aeb1	-0.0011572448
36	0xbaa0d642	-0.0012270885
37	0xb929b804	-0.00016185647
38	0x3a813840	0.0009858683
39	0xba4c5871	-0.0007795161
40	0x3a8578c1	0.0010183082
41	0x3a8280da	0.0009956614
42	0xba9824fa	-0.00116077
43	0x3a9d624e	0.0012007446
44	0x3aaa02ca	0.0012970802
45	0x3a59d72a	0.0008309955
46	0x3aa8ff5e	0.0012893488
47	0xba9df8bc	-0.0012052278
48	0x387b1a0c	5.986732e-05
49	0x3ab2bf34	0.0013637305
50	0xbaaebd49	-0.0013331558
51	0x3a9d1442	0.0011984187
52	0x3ab7a1bd	0.0014009994
53	0x3ab1acf3	0.0013555571
54	0xba333453	-0.0006836105
55	0x3a7f69b1	0.0009743227
56	0xba277ed6	-0.00063894445
57	0xba78158c	-0.000946366
58	0x3aab7fbe	0.0013084335
59	0xb9be1010	-0.00036251592
60	0xbab37496	-0.0013691362
61	0x3a904cc2	0.0011009204
62	0x3a59bb36	0.00083057897
63	0x3a815044	0.000986584
64	0x3a206b77	0.0006119529
65	0xba6d87d7	-0.0009061074
66	0x38f8c834	0.00011862852
67	0xbab0c1b7	-0.0013485466
68	0xbaad49e1	-0.001322087
69	0xba431f67	-0.0007443339
70	0x3a6fbc50	0.0009145187
71	0xba6774ee	-0.00088293746
72	0x3ab1d29e	0.0013566797
73	0x3ab6646b	0.0013915425
74	0xba8d408b	-0.0010776682
75	0x3ab9e15b	0.0014181541
76	0x3a6ae2d4	0.00089601916
77	0xb9a33ba2	-0.00031134213
78	0xba9f19b2	-0.0012138395
79	0xba93e632	-0.0011283814
80	0x3aabc010	0.0013103504
81	0x3a84c523	0.0010129552
82	0x3a897e2c	0.0010489873
83	0x3a86a9fc	0.0010274048
84	0x3a5fc6d8	0.0008536405
85	0x3a896171	0.001048131
86	0x397afb15	0.00023935393
87	0xba2cdfcb	-0.0006594627
88	0x3ab3c9d2	0.0013716763
89	0xba778d4b	-0.00094433565
90	0x3a84b42b	0.0010124495
91	0xba594b61	-0.00082891254
92	0xb75df3d0	-1.32293935e-05
93	0xbaa2426b	-0.0012379413
94	0xbaaf07d8	-0.0013353778
95	0x3a6c82bd	0.0009022167
96	0x3a923591	0.001115488
97	0x3abc0e2d	0.0014347486
98	0x3a902a21	0.0010998884
99	0x3a94fab3	0.0011366218
100	0x3a883577	0.001039191
101	0x3a89f173	0.0010524228
102	0x38b72dba	8.734637e-05
103	0x3a27d91a	0.0006402895
104	0x39f549e5	0.00046785097
105	0xba8c18f3	-0.0010688588
106	0x3a8d3fb2	0.0010776429
107	0xba91c5fe	-0.0011121628
108	0xb8fd09eb	-0.000120658275
109	0xba9034cc	-0.0011002063
110	0xba1cf95d	-0.0005988086
111	0x3a9c29c9	0.0011914308
112	0xb9e59750	-0.0004379102
113	0x3a34618b	0.000688099
114	0xba87dc5e	-0.0010365357
115	0x39274115	0.00015950606
116	0xba6d1833	-0.00090444385
117	0x3a9416e8	0.001129833
118	0x3ab0d56b	0.0013491338
119	0x3aba7138	0.0014224416
120	0x3aa7ff85	0.001281724
121	0xb9395f33	-0.0001767844
122	0xba9aeb47	-0.0011819386
123	0xb9879d99	-0.00025866626
124	0x3aab3835	0.0013063016
125	0x3a9701f0	0.0011520963
126	0x3ab31e73	0.0013665691
127	0xbab07c3c	-0.0013464759
128	0x3ac06536	0.0014678601
129	0xb9d1f5e4	-0.0004004679
130	0x3a74fc87	0.0009345491
131	0x3a853a76	0.0010164517
132	0x3a9044ae	0.0011006796
133	0xba380712	-0.00070200965
134	0x3abe6be0	0.0014527999
135	0x3a9554f6	0.0011393118
136	0x3aa05b79	0.0012234292
137	0xba8dcf94	-0.0010819309
138	0x3a8ae469	0.0010596636
139	0xba86744c	-0.0010258048
140	0xba9364e2	-0.0011245275
141	0xba8a2f12	-0.0010542592
142	0xba7d4345	-0.0009661208
143	0x3a95c715	0.0011427129
144	0x3a60951f	0.00085671426
145	0x399691a8	0.00028718752
146	0x3a93a323	0.0011263828
147	0x3a9d8c4b	0.001201996
148	0x3aa8e203	0.001288474
149	0xbaa83d47	-0.0012835645
150	0xbaa0d887	-0.0012271561
151	0x3a5e8c9f	0.0008489582
152	0xbaa8903f	-0.0012860371
153	0xba87ac9d	-0.0010351125
154	0x3a89d96e	0.001051707
155	0xbaa87ed0	-0.0012855176
156	0xbaa75643	-0.0012766797
157	0xba713a6e	-0.0009202127
158	0x3843c653	4.6676327e-05
159	0x3aad2b3f	0.0013211741
160	0xba4c38f0	-0.0007790467
161	0xbab12b2d	-0.0013516896
162	0xba97b157	-0.0011573237
163	0xba985f2d	-0.0011625044
164	0xba8be9ee	-0.0010674575
165	0x3a4445b7	0.0007487195
166	0xba8fe1e1	-0.0010977351
167	0xbaba57c6	-0.0014216832
168	0xba9504fb	-0.0011369282
169	0x3a97a529	0.0011569607
170	0xba80a4db	-0.0009814756
171	0x3aaa4e33	0.0012993276
172	0xb9b272d1	-0.0003403635
173	0x3a90005b	0.0010986434
174	0xbaaf9240	-0.0013395026
175	0x38d3f36d	0.000101066056
176	0x3a840e67	0.0010075093
177	0x39768512	0.00023509961
178	0x38ffe579	0.0001220209
179	0xba921f75	-0.0011148291
180	0xba9778a4	-0.001155634
181	0x39a79c24	0.00031969056
182	0x3a9955db	0.001169856
183	0xb99c4e91	-0.00029813175
184	0x3aa6cc8e	0.0012725757
185	0x3a8d56ec	0.0010783351
186	0xb8abba4d	-8.1886166e-05
187	0x3a9da4e0	0.0012027286
188	0x3a98f160	0.0011668615
189	0x3a1a5895	0.00058878335
190	0x39cd9cca	0.00039217464
191	0xba8f70ff	-0.001094371
192	0xb9031b65	-0.00012503339
193	0x3a26bd56	0.0006360611
194	0x3935ca63	0.000173369
195	0x377e7f30	1.5169193e-05
196	0xbaa8583b	-0.0012843678
197	0x3936b707	0.00017425056
198	0x3ab3be2c	0.0013713292
199	0xb90b874d	-0.00013306476
200	0x3a8a7838	0.0010564392
201	0xb93b1f82	-0.00017845447
202	0xb881ae03	-6.1836115e-05
203	0x3697a570	4.51941e-06
204	0x3ab0a587	0.0013477065
205	0xbaab28ce	-0.0013058425
206	0x3ab2c8da	0.0013640181
207	0xbaa45cd2	-0.001253987
208	0xba406689	-0.00073394977
209	0x3a69a26f	0.0008912449
210	0x3aa5d35e	0.0012651493
211	0x3a9cc229	0.001195972
212	0x3a92cfad	0.0011200808
213	0x3a94aff9	0.0011343948
214	0x3903e094	0.00012576795
215	0xba3cdfe0	-0.0007204991
216	0xba763437	-0.0009391936
217	0xba534db5	-0.00080605905
218	0x3aac26ef	0.0013134162
219	0xba69de9e	-0.0008921417
220	0xb95d2543	-0.00021090083
221	0x3aab30b7	0.0013060783
222	0xbab7a7f3	-0.0014011845
223	0x3a8d60df	0.0010786316
224	0x39ac4fca	0.00032865844
225	0x3ab81d82	0.001404688
226	0x390432c1	0.00012607408
227	0x3aa60cf4	0.0012668655
228	0x3a9ed73b	0.0012118587
229	0x3aad9517	0.0013243285
230	0x38f11da8	0.000114972994
231	0xbaa6a9d6	-0.001271541
232	0xba74a41c	-0.00093323155
233	0xba92a24d	-0.0011187285
234	0x3aa6ea38	0.0012734598
235	0xbaa0dad9	-0.0012272253
236	0xb883c78a	-6.283734e-05
237	0x39fbfd18	0.0004806302
238	0xba8b7147	-0.0010638618
239	0x3a922092	0.0011148623
240	0xbab5a726	-0.0013859018
241	0xba9ad5e2	-0.001181301
242	0xb9124a88	-0.0001395141
243	0xba058d61	-0.00050946145
244	0xb6da7484	-6.5104705e-06
245	0xba783da3	-0.0009469634
246	0xb9738b53	-0.00023226188
247	0xba3671a0	-0.00069596805
248	0xbab2e208	-0.0013647685
249	0xb94bca50	-0.00019434956
250	0xba96e746	-0.0011513017
251	0xba95cd5f	-0.0011429003
252	0xba9e52ff	-0.0012079178
253	0x382baab0	4.0928542e-05
254	0x37f65642	2.9365652e-05
255	0xb996e8ee	-0.00028783776

base_model.model.gpt_neox.layers.1.attention.query_key_value.lora_A.weight f4 [16, 512]
0	0x3ad426f8	0.001618593
1	0xbccc54f9	-0.024942862
2	0x3d0c1ef7	0.034209218
3	0xbd0865ae	-0.033300094
4	0xbd0c49c7	-0.034250047
5	0xbc38c8f6	-0.011278382
6	0xbca8db27	-0.020612312
7	0xbc0224ae	-0.007943315
8	0x3cd7dccf	0.026350407
9	0x3c9ddda3	0.019270724
10	0xbceb3461	-0.0287115
11	0xbd1034b2	-0.035206504
12	0x3ba6a905	0.0050860667
13	0xbc3e32e0	-0.011608809
14	0x3cf5dcff	0.030012606
15	0x3b96eeb4	0.0046060923
16	0xbcdb9835	-0.026805976
17	0xbbf027e6	-0.007328975
18	0xbd330647	-0.04370716
19	0xbbb783d8	-0.005600434
20	0xbd23ef52	-0.040023156
21	0x3d163fb4	0.036681846
22	0x3ce26fcb	0.027641198
23	0x3c2b8149	0.010467836
24	0x3bf5ba90	0.0074990466
25	0xbb8a3f5c	-0.004218979
26	0x3c178f30	0.009250447
27	0xbc3e1282	-0.011601092
28	0x3cdcaa1e	0.026936587
29	0x3cf1234f	0.029435782
30	0x3c38d5c9	0.011281439
31	0x3c8590b0	0.016304344
32	0xbb9ce621	-0.0047881757
33	0xbbc5a8ba	-0.0060320767
34	0x3c986518	0.018602893
35	0x3c53eafe	0.0129344445
36	0xbce125ec	-0.027483903
37	0x3d05b4ac	0.032643005
38	0xbcd712d5	-0.026254097
39	0xbd159f59	-0.03652892
40	0xbc26cfff	-0.010181426
41	0x3cb64c8e	0.022253301
42	0xbd0bc8fb	-0.034127217
43	0xbcca05b1	-0.024660917
44	0x3c9064b8	0.017626151
45	0xbd33d5bf	-0.043905016
46	0xbd0ee6a9	-0.034887943
47	0xbb81d17e	-0.003961741
48	0xbbea7423	-0.007154958
49	0x3cb6a49e	0.022295292
50	0x3c216948	0.009851761
51	0x3cf7c12b	0.030243477
52	0xbca64667	-0.020297242
53	0xbb5ca334	-0.0033666613
54	0x3d2fd04c	0.042923257
55	0xbcc3ecb7	-0.023916585
56	0xbc62e092	-0.013847487
57	0xbc93a483	-0.018022781
58	0xbcd58860	-0.026066005
59	0x3d2d4dc8	0.042310506
60	0x3cff6f12	0.031180892
61	0x3d2bb446	0.04191997
62	0xbca89222	-0.020577494
63	0xbcca90d4	-0.024727263
64	0xbc645e0b	-0.013938437
65	0xbc3c30dd	-0.011486259
66	0xbc1479a6	-0.009062206
67	0x3cd10213	0.025513684
68	0x3d2fce34	0.04292126
69	0xbd2e4846	-0.042549394
70	0xbc8ad816	-0.01694874
71	0xbd1c165d	-0.038107265
72	0x3cd1d287	0.025613083
73	0xbceb1ec9	-0.028701203
74	0xbbea5a79	-0.0071518985
75	0x3c90bb77	0.017667515
76	0x3cf989a6	0.030461144
77	0x3d1b94d3	0.037983727
78	0xbd0e379a	-0.034720995
79	0xbc291c37	-0.010321668
80	0x3ccab129	0.02474268
81	0x3bcfd156	0.0063420935
82	0xbc679771	-0.014135228
83	0xbd06d678	-0.032919377
84	0xbccee157	-0.025253935
85	0xbc882379	-0.016618477
86	0x3d13fdd2	0.036130734
87	0xbd026105	-0.031830806
88	0x3c03ff04	0.008056406
89	0x3d077e53	0.033079457
90	0xbcfc2c8b	-0.030782958
91	0xbcbfefc3	-0.023429757
92	0xbc86d951	-0.016461046
93	0x3ce902e7	0.028443767
94	0xbd36af55	-0.044600803
95	0xbc8a00aa	-0.01684602
96	0x3cb59435	0.022165397
97	0x3d22fa5b	0.03978954
98	0x3ca97c5d	0.020689184
99	0x3c876c8b	0.01653125
100	0xbc990e32	-0.018683527
101	0x3b8a5b0c	0.0042222794
102	0xbae62644	-0.0017559011
103	0x3c7028af	0.014658137
104	0x3cc72963	0.024311727
105	0x3a8cec7d	0.0010751631
106	0xbd2036e1	-0.039114837
107	0xbcf01c12	-0.02931026
108	0x3cbf4fa4	0.023353405
109	0x3bfb5bb4	0.007670844
110	0x3c80d0fb	0.01572465
111	0xbd2aa5c6	-0.041662
112	0x3c8d0331	0.017213436
113	0x3d24f25e	0.0402702
114	0x3b38698a	0.0028139078
115	0xbcf907cf	-0.030399231
116	0x3cb52c3e	0.022115823
117	0xbcfe1a46	-0.031018388
118	0x3be796f5	0.007067556
119	0xbd2bb5d4	-0.04192145
120	0xbd30c84b	-0.043159764
121	0xbc2bb88a	-0.010481009
122	0xbb25ae49	-0.0025280884
123	0xbd127039	-0.035751555
124	0xbc551772	-0.013006078
125	0x3cca2858	0.02467744
126	0x3c213c8f	0.009841098
127	0x3cfffbd5	0.031248013
128	0x3b71e667	0.0036911012
129	0x3ccd0ac8	0.025029555
130	0xbc4b3457	-0.0124026155
131	0xbd22bbd1	-0.039729897
132	0x38b65242	8.693758e-05
133	0x3d13fa79	0.03612754
134	0xbd07fed3	-0.033202004
135	0xbcfebeac	-0.031096779
136	0xbb19b2ce	-0.0023452523
137	0xbd312779	-0.043250535
138	0x3cfa4bfd	0.030553812
139	0x3be076a8	0.0068500824
140	0x3c390f98	0.011295222
141	0xbd0c636d	-0.034274507
142	0x3d2c57f4	0.042076066
143	0x3bb717ed	0.005587569
144	0xbc538db4	-0.012912203
145	0x3bad6797	0.00529189
146	0xbcb7b32c	-0.022424303
147	0x3d04fe25	0.032468934
148	0x3cd31da5	0.025770972
149	0xbcce92fa	-0.025216568
150	0x3c97334c	0.018457077
151	0x3d09728d	0.03355651
152	0x3cdb1d32	0.02674732
153	0x3bc33120	0.005956784
154	0x3c4b6a08	0.012415417
155	0x3d236c35	0.039898116
156	0xbc323be5	-0.010878538
157	0xbc507e26	-0.012725389
158	0x3c16d15f	0.009205191
159	0x3cd7bfcc	0.026336573
160	0xbcd5c028	-0.026092604
161	0xbd00d22b	-0.03145043
162	0xbbca2f0c	-0.006170159
163	0x3cf2c8d1	0.029636772
164	0x3c7d7739	0.015470319
165	0x3c2f2acd	0.010691357
166	0x3a91739e	0.0011097079
167	0x3ba52043	0.0050392463
168	0x3ccae6dc	0.024768285
169	0x3d25e59a	0.04050217
170	0xbc9c20e7	-0.019058658
171	0x3cc699df	0.024243293
172	0xbcbc7386	-0.023004305
173	0x3c8d3043	0.017234927
174	0x3d04fffb	0.032470684
175	0xbc96561f	-0.018351613
176	0x3cef49f9	0.029210078
177	0xbb9918c6	-0.0046721427
178	0x3d24fa21	0.040277604
179	0x3bf5c2ff	0.007500052
180	0x3bb2bd55	0.005454699
181	0xbd06adde	-0.032880656
182	0xbba48480	-0.005020678
183	0xbd08e6c0	-0.033423185
184	0x3d251f93	0.040313315
185	0xbcff8377	-0.031190617
186	0x3d0712c1	0.03297687
187	0x3b6e9c02	0.0036408906
188	0xbc16c530	-0.009202287
189	0xbc63993b	-0.013891513
190	0xbce0601d	-0.02738958
191	0xbab3659f	-0.0013686902
192	0xbcfa8fe3	-0.030586189
193	0xbc9e328a	-0.019311208
194	0x3d114734	0.035468295
195	0xbc154048	-0.009109564
196	0x3d318b44	0.043345705
197	0xb96593a3	-0.00021894141
198	0xbcb048ad	-0.02151903
199	0xbcff07b4	-0.031131603
200	0x3ce17911	0.02752355
201	0x3c74061e	0.014894037
202	0xbc46065e	-0.012086479
203	0xbc1f0eb7	-0.009708098
204	0xbc51cf07	-0.012805707
205	0xbd19145e	-0.03737294
206	0xbc184cb0	-0.0092956275
207	0x3c4743f2	0.0121621955
208	0xbcfe1f11	-0.031020673
209	0x3d10404a	0.03521756
210	0x3d333bff	0.04375839
211	0x3c346a19	0.011011624
212	0xbb9c962a	-0.004778643
213	0x3d058d9d	0.032605756
214	0x3c415cd1	0.011801914
215	0xbcdd6d7f	-0.02702975
216	0x3d28c6c2	0.041205175
217	0x3c2b1f97	0.010444543
218	0x3ce20dfb	0.027594557
219	0xbd05fc8d	-0.032711554
220	0x3c28c1a2	0.010300072
221	0x3c1b17e9	0.00946615
222	0xbc8008df	-0.01562923
223	0xbcfc507a	-0.030800093
224	0xbc29a54f	-0.010354354
225	0xbb9d230f	-0.004795439
226	0xba815d7b	-0.0009869778
227	0xbd32ca2a	-0.04364983
228	0xbd24098f	-0.04004818
229	0x3bb300f9	0.0054627624
230	0x3c01bb44	0.007918183
231	0xbd1fe8f8	-0.039040536
232	0x3d017b12	0.03161151
233	0xbcaa27dc	-0.02077096
234	0x3d1a433c	0.037661776
235	0x3c0ea563	0.008706423
236	0xbbb47b02	-0.0055078277
237	0xbce8b99d	-0.02840882
238	0x3c2b0570	0.010438308
239	0xbd3636bf	-0.044485804
240	0x3cf38430	0.029726118
241	0xbb0c20ce	-0.0021381858
242	0x3cca5f46	0.024703633
243	0xbc07a7e6	-0.008279776
244	0xbd07b974	-0.033135846
245	0xbcfab0f2	-0.030601952
246	0x3cd1090b	0.025517007
247	0xbd00276b	-0.031287592
248	0xbca238fb	-0.019802561
249	0x3d301015	0.042984087
250	0xbd1c30df	-0.038132545
251	0xbccb4388	-0.024812475
252	0x3ce87232	0.028374765
253	0x3d046f22	0.032332547
254	0x3be76b3c	0.007062344
255	0x3c5b4bc2	0.013384761

base_model.model.gpt_neox.layers.1.attention.query_key_value.lora_B.weight f4 [1536, 16]
0	0xb9981288	-0.00029005506
1	0xb89c9012	-7.465495e-05
2	0x386d5282	5.6582045e-05
3	0x3950f3dc	0.0001992727
4	0xb8dc6a25	-0.000105101884
5	0xbab09bd0	-0.001347417
6	0x3a57e8fc	0.00082363165
7	0xba48dc78	-0.0007662247
8	0xb94d3661	-0.00019570581
9	0x38d1bf21	0.00010001497
10	0x3a96409e	0.0011463349
11	0x38802af6	6.111518e-05
12	0x3ab89b25	0.0014084323
13	0xb9b0b6ec	-0.00033705623
14	0xba894281	-0.001047209
15	0x39b46a9f	0.00034411714
16	0x39254981	0.00015763009
17	0xb8313b36	-4.2255233e-05
18	0x3867e0a8	5.528392e-05
19	0xb9cd4c2a	-0.00039157394
20	0xb71a1972	-9.18504e-06
21	0x3aaf4856	0.0013372998
22	0xba3b6609	-0.00071486883
23	0x3a62a318	0.00086455187
24	0xba3102dd	-0.0006752441
25	0xba3e1cdf	-0.0007252227
26	0x38fb342a	0.00011978329
27	0x3995f541	0.00028602223
28	0xbaa24e04	-0.001238287
29	0xb8bbe8b6	-8.960201e-05
30	0x3a534047	0.00080585893
31	0x3903fea0	0.00012587989
32	0x3a0500b3	0.00050736516
33	0x3a848f84	0.0010113572
34	0x3a48d8fb	0.0007661727
35	0xb90a746c	-0.00013204076
36	0xb986ddeb	-0.00025723813
37	0xb9abc81f	-0.00032764763
38	0xb93ac087	-0.00017810064
39	0xba6a25d6	-0.00089320296
40	0xb997001f	-0.00028801055
41	0x3aa20f55	0.0012364188
42	0x395c656f	0.00021018622
43	0xba54fe40	-0.00081250444
44	0xbaa95c54	-0.0012921193
45	0xb7490eaa	-1.1983948e-05
46	0x39440a9a	0.00018695966
47	0x3a02e031	0.00049925136
48	0x3794cbcc	1.7737875e-05
49	0xba974302	-0.0011540356
50	0xba94bb16	-0.001134726
51	0x3a2902aa	0.00064472354
52	0xba273fdb	-0.00063800596
53	0x3a8e519d	0.0010858063
54	0x39ffd84b	0.0004879854
55	0xba446a3b	-0.0007492636
56	0xba32d6b5	-0.0006822155
57	0x3ab8f95c	0.0014112401
58	0xb77d3b64	-1.5093803e-05
59	0xb97f1903	-0.00024328013
60	0xba910c4b	-0.0011066286
61	0x3a534ea7	0.00080607313
62	0x394a8c27	0.00019316432
63	0x3a7ded87	0.00096865784
64	0x362dd930	2.5905429e-06
65	0x37a57928	1.972595e-05
66	0x3aa62018	0.001267436
67	0x3a0fe738	0.00054894714
68	0xba129e32	-0.0005593031
69	0xbaa1a11b	-0.0012331338
70	0xba446371	-0.00074916246
71	0x3a52f643	0.000804756
72	0x3a6bedbe	0.0008999965
73	0xbab3dba8	-0.0013722079
74	0x37d2667f	2.508168e-05
75	0x396e30dc	0.0002271565
76	0x3a9a7a87	0.0011785784
77	0xba1bdbf9	-0.0005945559
78	0xbab5ca69	-0.0013869527
79	0xbab4f455	-0.0013805727
80	0x3a9a7720	0.001178477
81	0x3a946315	0.0011321033
82	0x3906c5c7	0.00012852914
83	0x3a6a01e0	0.0008926671
84	0x3a039f03	0.0005020948
85	0xbabb48c4	-0.0014288654
86	0x39e48e4e	0.00043593574
87	0xbab6d2a6	-0.0013948276
88	0x3a1b5690	0.00059256796
89	0x3aaf40a4	0.0013370705
90	0x394ef372	0.00019736381
91	0xba93eb90	-0.0011285413
92	0x3a9ddf6a	0.0012044732
93	0x3aa2901f	0.001240257
94	0xba81a987	-0.0009892442
95	0xb98700c4	-0.00025749777
96	0x3ab515af	0.0013815666
97	0x3ac04d94	0.0014671558
98	0x3aadc3fd	0.0013257262
99	0x3aa7058e	0.0012742744
100	0xb9e7778a	-0.00044148817
101	0xb9da7ad5	-0.00041671717
102	0xb987823f	-0.00025846247
103	0x3a243afd	0.00062648935
104	0x3a59a892	0.0008303012
105	0x3aab6bba	0.001307837
106	0x397b3682	0.00023957531
107	0xba924e9f	-0.0011162347
108	0x3a81116e	0.0009847113
109	0xbaac023e	-0.0013123227
110	0xbab84f03	-0.0014061633
111	0x3a8f74bc	0.0010944824
112	0xb982215f	-0.00024820396
113	0x3aaed07e	0.0013337282
114	0x3ab0ef4f	0.0013499054
115	0x38f27ffc	0.00011563298
116	0xb8feb274	-0.00012144903
117	0xba3bc437	-0.0007162722
118	0xb92effee	-0.00016689274
119	0xb908a42a	-0.00013031127
120	0x3ab5c6f8	0.0013868501
121	0x38e064ca	0.00010699926
122	0xb9c3be6c	-0.00037335174
123	0xbab18bfe	-0.0013545749
124	0xba01893d	-0.00049414096
125	0xb9b308f6	-0.00034148217
126	0xbab1f68d	-0.0013577506
127	0x3a2b8429	0.0006542826
128	0xbab4afe4	-0.001378533
129	0xbaa59af2	-0.0012634678
130	0xba96d620	-0.0011507906
131	0xb92c8924	-0.00016454287
132	0xbaada10e	-0.001324685
133	0xba565a9e	-0.0008176955
134	0xb94a486e	-0.00019291203
135	0x39b884c0	0.0003519412
136	0xba4a04dc	-0.00077064126
137	0xb9b1c5af	-0.00033907357
138	0x3aae1ba0	0.0013283379
139	0xba8b578d	-0.001063095
140	0xb7cc8c11	-2.4383919e-05
141	0xbaadae05	-0.0013250714
142	0x3ab1b6ad	0.001355847
143	0x3aab4174	0.0013065771
144	0x3aa48255	0.0012551049
145	0x3a72656d	0.0009246681
146	0xb8fff9cc	-0.00012205876
147	0x3ab420c0	0.001374267
148	0x3aba5231	0.0014215169
149	0xbab833e2	-0.0014053548
150	0x39f0ba46	0.00045915152
151	0xbabba3f3	-0.0014315828
152	0x3ab2f57a	0.001365348
153	0x3a6cce77	0.0009033451
154	0xba807472	-0.0009800328
155	0x3aa5ecf2	0.0012659116
156	0x3aa7132e	0.0012746805
157	0x3a8f0de2	0.0010914172
158	0xb94d7cee	-0.00019596863
159	0xba592f2c	-0.0008284922
160	0xb8357521	-4.3262848e-05
161	0x39bf1eb2	0.0003645323
162	0xba1bed19	-0.0005948111
163	0x3a4b8180	0.00077631325
164	0x3a221604	0.000618309
165	0x3a9d9184	0.0012021516
166	0x3a5b02ef	0.0008354624
167	0x3a822438	0.0009929007
168	0xb9f7a5da	-0.0004723508
169	0x39bd656a	0.00036124449
170	0x393dd7e1	0.00018104866
171	0xba5045db	-0.00079449796
172	0xb95b00a2	-0.00020885703
173	0x387ecad2	6.074721e-05
174	0xb9f9425c	-0.00047542423
175	0x39ba8872	0.00035578344
176	0x3a8d23e3	0.0010768141
177	0x3821c2ce	3.8566817e-05
178	0x3a5f5c1e	0.00085205014
179	0x3a7d4473	0.0009661384
180	0x3a4eec8a	0.00078935234
181	0xb9459eab	-0.00018846492
182	0x3a96b139	0.0011496908
183	0xba9a2176	-0.001175924
184	0x3a717380	0.0009210631
185	0x3a493d7d	0.0007676704
186	0xb91a919b	-0.00014740827
187	0xba918c94	-0.0011104518
188	0x3a8fec84	0.0010980521
189	0x3ab497c8	0.0013778144
190	0xb80475e8	-3.158106e-05
191	0xba2a2b8b	-0.0006491474
192	0xba80edbe	-0.0009836478
193	0xbab7d38c	-0.0014024838
194	0xb91ea71d	-0.00015130309
195	0xbaae7162	-0.0013308937
196	0xbaa5e2d0	-0.0012656096
197	0x399856c1	0.00029056336
198	0x3a125122	0.0005581548
199	0xbabbb10c	-0.0014319732
200	0x3a001583	0.0004886018
201	0x3aa5b1b1	0.0012641457
202	0x3a8c9c7b	0.0010727787
203	0xbaab5c93	-0.0013073854
204	0xb8a563c2	-7.8863945e-05
205	0xb9ddb334	-0.00042285922
206	0xba884822	-0.0010397474
207	0xb80fd8e6	-3.429586e-05
208	0x3aa62907	0.0012677022
209	0x3aa3ef6e	0.0012507269
210	0x3a9f6159	0.0012159749
211	0x3ab5c221	0.0013867059
212	0x3aa3e22d	0.0012503319
213	0xba8de93e	-0.0010826958
214	0x3aad7f1a	0.0013236732
215	0xbaa81e7b	-0.0012826467
216	0x3a93e46c	0.0011283285
217	0x3aa7617f	0.0012770145
218	0x3aa914eb	0.0012899911
219	0xba6392cb	-0.00086812366
220	0x3a96fb7b	0.0011519039
221	0xba38b2e7	-0.00070457015
222	0xba98edac	-0.0011667511
223	0x3a38b7e8	0.0007046447
224	0x39c1f38d	0.00036993288
225	0x3a3bd60f	0.0007165381
226	0x38e9c369	0.00011146704
227	0xba00b56b	-0.0004909846
228	0xba457379	-0.00075321604
229	0x3ab4f7e2	0.0013806785
230	0xb9c2acc5	-0.00037131287
231	0xba5d4052	-0.00084400654
232	0xba6ca5a7	-0.00090273697
233	0x3abe642f	0.0014525707
234	0x39afef3d	0.00033556847
235	0xba621f15	-0.00086258474
236	0xba82e069	-0.0009985092
237	0xbaaf3f47	-0.0013370299
238	0xb9d286c1	-0.0004015472
239	0x3aa4e0b2	0.0012579171
240	0x3aab643d	0.0013076138
241	0x3aad9045	0.0013241848
242	0x3a9d4c0a	0.0012000811
243	0x3aad58fb	0.0013225371
244	0x3a85fc81	0.0010222347
245	0xba5f67f2	-0.0008522264
246	0xb8f61861	-0.00011734735
247	0x3a9a01d1	0.0011749809
248	0x3a7b6876	0.0009590456
249	0xba953968	-0.0011384906
250	0x37557626	1.2723298e-05
251	0xba459737	-0.00075374864
252	0x3a8f68ba	0.0010941245
253	0xba5c7fb9	-0.0008411366
254	0xbaabc8d5	-0.0013106117
255	0x39cad9e4	0.00038690784

base_model.model.gpt_neox.layers.2.attention.query_key_value.lora_A.weight f4 [16, 512]
0	0x3d242663	0.04007567
1	0xbd2349d2	-0.039865322
2	0xbbea1322	-0.007143394
3	0x3c88f186	0.01671673
4	0xbd3457f0	-0.044029176
5	0xbcd1ba5e	-0.025601562
6	0xbc91286f	-0.017719476
7	0x3b7029b3	0.0036645948
8	0x3d193ddd	0.037412513
9	0xbb596dd9	-0.0033177047
10	0x3c0a0ed6	0.008426389
11	0x3c8ba0e1	0.017044486
12	0x3d0dc649	0.034612928
13	0xbc4e31de	-0.012585131
14	0xbca30a7a	-0.019902457
15	0x3cf7fc9b	0.030271819
16	0x3cc878d3	0.024471676
17	0xbd2a696b	-0.04160444
18	0xbd31dc2d	-0.043422867
19	0x3cf276f4	0.029597737
20	0xbc0d0255	-0.008606513
21	0x3c9e4819	0.019321488
22	0xbb6ab459	-0.0035813062
23	0x3d15f75e	0.03661286
24	0x3d258a66	0.04041519
25	0x3d1615c2	0.036641844
26	0xba9e5c8d	-0.0012082026
27	0x3cbc3957	0.02297656
28	0xbb6ce8cf	-0.0036149507
29	0x3c00b219	0.007854962
30	0x3d08234b	0.033236783
31	0xba810836	-0.0009844366
32	0xbc638965	-0.013887738
33	0xbbb0610b	-0.005382662
34	0x3956145b	0.00020416213
35	0x3d2e8ed7	0.04261669
36	0x3ca46e17	0.020072026
37	0xbd1eb38d	-0.03874545
38	0x3bade730	0.0053071007
39	0x3c925c4f	0.017866282
40	0x3d25179e	0.040305726
41	0xbc8c251f	-0.017107544
42	0x3c9b6d51	0.018973025
43	0xbccfe12d	-0.025375927
44	0x3b0625a0	0.0020469204
45	0x3d12d0bf	0.035843607
46	0x3c3817b6	0.011236122
47	0xbc9fe9b1	-0.019520612
48	0x3b539e6b	0.003229047
49	0xbcaa6229	-0.02079876
50	0xbd0339fd	-0.032037724
51	0x3cbcfec8	0.023070708
52	0x3d1b9c2e	0.03799074
53	0xbd0eb248	-0.03483799
54	0x3cd30641	0.025759818
55	0x3cd564ec	0.0260491
56	0x3d1d5fac	0.038421318
57	0x3cd28ef2	0.025702927
58	0xbcf19f0f	-0.02949479
59	0xbc554802	-0.013017656
60	0x3c4e7b28	0.012602605
61	0x3c21ae9a	0.009868288
62	0x3d22ae41	0.039716963
63	0x3b9c6586	0.0047728447
64	0xbd307610	-0.043081343
65	0xbd36a2f6	-0.044589005
66	0xbd2574ea	-0.0403947
67	0xbc9d20f3	-0.01918075
68	0xbc315a74	-0.010824788
69	0x3d2cf3bc	0.04222463
70	0xbc36da27	-0.01116041
71	0x3d0b76e0	0.034048915
72	0x3a93fadb	0.0011289971
73	0xbab22b10	-0.0013593156
74	0xbbf2bc33	-0.007407689
75	0x3ce319a8	0.027722195
76	0xbc92729c	-0.017876916
77	0x3a574d86	0.0008213151
78	0xbd1551e7	-0.03645506
79	0x3cc25dd7	0.023726387
80	0xbc85e0ca	-0.01634254
81	0xbab1b60c	-0.0013558283
82	0xbc3502ed	-0.011048061
83	0x3c8ba00c	0.01704409
84	0xbd1a1f64	-0.037627593
85	0x3d23fe7c	0.040037617
86	0xbc91af90	-0.01778391
87	0x3cd60e6d	0.026129926
88	0x3d06f90e	0.03295236
89	0x3b186864	0.002325558
90	0xbccee6d2	-0.025256548
91	0xbb27348f	-0.0025513505
92	0xbc61b7b6	-0.01377671
93	0xbbba5ce2	-0.005687342
94	0xbcba5341	-0.022744777
95	0xbcf6a543	-0.0301081
96	0x3d2fd3c7	0.042926576
97	0x3bbfc272	0.005852037
98	0x3ce9ce23	0.028540676
99	0xbad0b16f	-0.001592202
100	0x3d0c3d3b	0.03423808
101	0x3cd49342	0.025949124
102	0x3d2eaf01	0.042647365
103	0x3d17e6bc	0.03708528
104	0xbcf5ea0a	-0.030018825
105	0x3ccd1898	0.025036141
106	0x399bce7f	0.00029717755
107	0xbd1b848f	-0.037968215
108	0x3d10422b	0.035219353
109	0xbd30cdea	-0.043165125
110	0x3cbc24cd	0.022966767
111	0x3ccacd7a	0.024756182
112	0xbbedb386	-0.007254067
113	0x3c743f56	0.014907679
114	0xbd30d4f2	-0.04317183
115	0x3d091cc6	0.033474706
116	0xbcaccaad	-0.021092737
117	0xbc33aa6b	-0.010965924
118	0xbd00368d	-0.031302024
119	0x3d0f987b	0.035057526
120	0xbcf540a2	-0.029938046
121	0xbd0811d2	-0.03322012
122	0x3ca7cb9c	0.02048283
123	0x3cf104cd	0.029421235
124	0x3d1627fa	0.03665922
125	0x3be0d838	0.006861713
126	0x3d2aea26	0.041727208
127	0xbd1feb79	-0.039042924
128	0x3d29e4f4	0.041478112
129	0x3c332dd0	0.0109362155
130	0xbc2a55f6	-0.010396471
131	0xbd1b56b8	-0.0379245
132	0xbb8741e1	-0.0041277264
133	0xbbe464bd	-0.0069700168
134	0x3cae46bb	0.021273961
135	0xbc31cd20	-0.010852128
136	0x3c6bc025	0.014389073
137	0xbc84ab57	-0.016194982
138	0xbc62d20d	-0.013844025
139	0xbc87508d	-0.016517902
140	0x3d309b1f	0.043116685
141	0xbba4601f	-0.0050163413
142	0xbd028c8e	-0.031872325
143	0x3d2b58ee	0.041832857
144	0xbb090b16	-0.0020911149
145	0x3c877f73	0.016540265
146	0xbc6b722b	-0.0143704815
147	0x3cb33178	0.021874174
148	0xbc660c0c	-0.014040958
149	0x3d0e4b3c	0.034739718
150	0xbd002fa4	-0.031295434
151	0xbcbf2fda	-0.023338247
152	0x3b24f5b5	0.0025170867
153	0xbc915e92	-0.01774529
154	0x3cf73153	0.030174887
155	0x3c816cdb	0.015798977
156	0xbc59d5b9	-0.013295584
157	0x3c628f93	0.013828176
158	0xbc2ee122	-0.010673793
159	0x3d13cbb8	0.036082953
160	0x3d0d3502	0.03447438
161	0x3cece9da	0.028920103
162	0x3d2f67a2	0.04282344
163	0x3d27522c	0.04084985
164	0x3c8f8027	0.017517162
165	0xbce40454	-0.027834095
166	0xbc5e3949	-0.0135634625
167	0x3ce50811	0.027957948
168	0x3c11da34	0.008902121
169	0x3b6e4903	0.0036359436
170	0xbce6b6c4	-0.028163321
171	0x3cdfd9d6	0.027325552
172	0x3cc0b20a	0.023522396
173	0x3cee1586	0.029062998
174	0x3ca03511	0.019556554
175	0x3d1f72a6	0.038927697
176	0xbd0e66a4	-0.034765854
177	0xbcaf74d8	-0.02141802
178	0x3d0d020f	0.03442579
179	0xbd120258	-0.035646766
180	0xbcb23d3d	-0.021757716
181	0xbb0d8e17	-0.0021599585
182	0xbc79cde4	-0.015246842
183	0x3c5f1152	0.013614969
184	0xbca988ba	-0.02069508
185	0xbc9ec982	-0.019383196
186	0xbcbc8df0	-0.0230169
187	0xbb494cec	-0.0030716015
188	0x3c3ff0b1	0.0117151
189	0xbca8d302	-0.020608429
190	0xbd0812a9	-0.03322092
191	0xbca45e45	-0.020064482
192	0xbb23940e	-0.0024960074
193	0xbc8cc609	-0.017184274
194	0x3ca45c83	0.020063644
195	0xbcaf7992	-0.021420274
196	0xbcc0b5db	-0.023524215
197	0x3cc0ab23	0.023519104
198	0x3b72828b	0.003700408
199	0x3c44e5a1	0.012017638
200	0x3c977f0c	0.018493198
201	0x3c80fb9b	0.015744975
202	0x3d139388	0.03602937
203	0x3caf09e3	0.021367019
204	0xbcc03e92	-0.023467336
205	0xbd09c9c8	-0.0336397
206	0xbc9adfd3	-0.018905556
207	0x3c50d842	0.012746872
208	0xbc04cc63	-0.00810537
209	0x3c104566	0.008805608
210	0xbc87d724	-0.01658208
211	0xbd2f58b9	-0.042809222
212	0x3cf5834b	0.029969832
213	0x3c350861	0.011049361
214	0xbce9e343	-0.02855075
215	0xbbe13ba6	-0.0068735657
216	0xbce81617	-0.028330846
217	0x3ce2e262	0.027695838
218	0x3c8bd13c	0.017067544
219	0xbd094ea3	-0.03352226
220	0xbb54e9ce	-0.0032487991
221	0xbcdee36c	-0.027208053
222	0x3d018e6d	0.03162997
223	0x3d28cd29	0.04121128
224	0xbc1208d3	-0.008913237
225	0xbc84da3b	-0.016217342
226	0x3cd98788	0.026553884
227	0x3bfad223	0.007654445
228	0x3d0b5bd7	0.034023132
229	0xbcca467d	-0.024691815
230	0x3c591dce	0.013251735
231	0x3d03f38b	0.032214683
232	0x3a088169	0.0005207272
233	0xbcab43a1	-0.020906271
234	0xbc659d28	-0.01401452
235	0x3d0205ce	0.031743817
236	0xbc721812	-0.014776247
237	0x3ca7d267	0.02048607
238	0x3cfce772	0.03087208
239	0x3cb3e67b	0.021960488
240	0xbb4364f3	-0.002981481
241	0xbd20eafe	-0.039286606
242	0xbb0ff499	-0.002196586
243	0x3cad260e	0.02113631
244	0x3bbdd60d	0.005793339
245	0xbc0606f0	-0.008180365
246	0xbd2384a8	-0.039921433
247	0x3d12f4ee	0.035878114
248	0x3b8ee112	0.0043603266
249	0x3d062538	0.03275034
250	0x3d13d52c	0.03609197
251	0x3cd76488	0.026293054
252	0xbcb283ad	-0.021791304
253	0x3d2d4467	0.04230156
254	0x3ca1dc0c	0.019758247
255	0xbbb7289a	-0.005589557

base_model.model.gpt_neox.layers.2.attention.query_key_value.lora_B.weight f4 [1536, 16]
0	0xb6ae5c7c	-5.1963707e-06
1	0xb9eaad70	-0.0004476118
2	0xb810ee1d	-3.4554036e-05
3	0xb866f29c	-5.506222e-05
4	0xb80820fb	-3.2455642e-05
5	0x3a6e5587	0.0009091724
6	0x38f833f6	0.0001183524
7	0xba3e825b	-0.0007267349
8	0x3a513da9	0.00079819054
9	0x3a92d0e1	0.0011201167
10	0x39d16442	0.00039938284
11	0x3a72db38	0.00092642335
12	0x3ab98a6c	0.0014155633
13	0xba6f06e8	-0.00091181556
14	0x3a90f896	0.0011060413
15	0xba82a5a0	-0.0009967573
16	0x3aa68ad2	0.0012706167
17	0xbaae761d	-0.0013310347
18	0x3aa0c8a1	0.0012266823
19	0x3a5b92b2	0.00083760463
20	0x38a57022	7.8886995e-05
21	0xba8140a8	-0.0009861188
22	0x3ab4ac92	0.001378434
23	0xbab984fe	-0.0014154015
24	0xba0f5f3c	-0.0005469208
25	0xba96cf85	-0.0011505937
26	0x3ab8345d	0.0014053691
27	0xba8ad137	-0.0010590915
28	0xbaab9b1b	-0.001309249
29	0xba536176	-0.0008063534
30	0x3a9ead34	0.0012106062
31	0xb8c38596	-9.323207e-05
32	0xba88ccf0	-0.0010437053
33	0xba1f309b	-0.00060726114
34	0xba41c4c6	-0.0007391687
35	0xbac170b0	-0.0014758315
36	0xba655520	-0.00087483414
37	0xb94cb03d	-0.0001952061
38	0xba5f971e	-0.0008529293
39	0x39b503cf	0.00034525848
40	0x3a888684	0.0010416065
41	0x3a3ada46	0.0007127862
42	0xba6cf61d	-0.0009039359
43	0xb886767e	-6.411689e-05
44	0x3a53cb57	0.0008079311
45	0xb93629d0	-0.00017372449
46	0xba4a9fcd	-0.00077295006
47	0x3a9d1342	0.0011983889
48	0x3a9bd14e	0.0011887939
49	0xba642c1e	-0.0008704084
50	0x3a806319	0.0009795158
51	0x3a7aef64	0.0009572415
52	0x39ef109c	0.00045598007
53	0xbabd084d	-0.001442203
54	0x3aa57cd4	0.0012625703
55	0x3a9e666f	0.0012084971
56	0xba806812	-0.000979664
57	0xba90e085	-0.001105324
58	0x39dfdc17	0.00042697854
59	0xba8066aa	-0.0009796221
60	0xb9f1264a	-0.0004599563
61	0x3a7609e7	0.0009385631
62	0xb8d5ccc3	-0.00010194771
63	0x3aa462f2	0.0012541695
64	0xba935a21	-0.001124207
65	0x3a8a61aa	0.0010557671
66	0xb9b697cd	-0.00034826846
67	0xba85a54a	-0.0010196355
68	0x37a657fd	1.9829715e-05
69	0xb940bed6	-0.00018381639
70	0xba27ade0	-0.0006396454
71	0x38642558	5.4394215e-05
72	0x3a5ffe10	0.0008544633
73	0xb7fd098e	-3.01644e-05
74	0xba6a13ba	-0.0008929331
75	0x39e9ea01	0.0004461557
76	0x3a9d8431	0.0012017546
77	0x380a8df4	3.3033968e-05
78	0xb9b50129	-0.00034523875
79	0xb9e3581e	-0.00043362466
80	0x3aad1f1b	0.0013208123
81	0xbabb0016	-0.0014266993
82	0x3a289f3a	0.0006432418
83	0x3976b5aa	0.00023528063
84	0x3a9e1558	0.0012060804
85	0x38ff03e2	0.00012160071
86	0xb8c8fbcb	-9.583643e-05
87	0x3a2489bf	0.0006276629
88	0x3aa35fe7	0.0012464494
89	0x3a25c429	0.00063234806
90	0xb944f545	-0.00018783387
91	0xba5b1892	-0.0008357848
92	0x398ec81c	0.00027233444
93	0x39245128	0.00015670492
94	0xb96eff31	-0.00022792515
95	0x3a835fd0	0.0010023061
96	0xba61b97c	-0.0008610708
97	0x3abe1fbd	0.0014505308
98	0xba024dfe	-0.0004970728
99	0xba9e3174	-0.0012069182
100	0xbabd26f4	-0.0014431165
101	0xb914732f	-0.00014157289
102	0xba58914a	-0.0008261396
103	0xba419e74	-0.0007385977
104	0x3a507b94	0.0007952985
105	0xb9395ae5	-0.00017676836
106	0x3a6f99ea	0.00091400614
107	0x3a65f6a2	0.0008772408
108	0x3a192aa1	0.0005842839
109	0x3a79f1e1	0.0009534639
110	0x3aa0aa84	0.0012257849
111	0x39190f94	0.0001459702
112	0xb8b36fe8	-8.556229e-05
113	0xb9aa5662	-0.00032489287
114	0xba9f7915	-0.0012166823
115	0xb82cb5e9	-4.1177413e-05
116	0xb819391e	-3.6531237e-05
117	0x3aa8b143	0.0012870211
118	0xbaa227ce	-0.0012371482
119	0x394f60d8	0.00019777135
120	0x3aaae7f1	0.0013039095
121	0x3aa273d1	0.0012394135
122	0xb8f4137b	-0.00011638455
123	0x3928b11e	0.0001608771
124	0x3a949306	0.001133532
125	0xba8e808c	-0.001087205
126	0x3ab55285	0.0013833797
127	0xb94a9d24	-0.0001932276
128	0x3a84ef1a	0.0010142059
129	0x3a3725db	0.0006986537
130	0x39f34077	0.00046396602
131	0x3a723b58	0.000924041
132	0xb981b5bd	-0.00024740203
133	0x39fb15c2	0.00047890662
134	0x3a39a5c7	0.00070818927
135	0xbab0deef	-0.0013494174
136	0xb97cc94a	-0.00024107579
137	0xba37c5da	-0.0007010378
138	0xb99d08dd	-0.00029951977
139	0xba48e3b8	-0.0007663327
140	0xba88c925	-0.0010435922
141	0x392afabf	0.00016305874
142	0x3a2f39ad	0.00066843146
143	0x3a22664e	0.0006195054
144	0x3aa0fb35	0.0012281897
145	0x3998c51c	0.00029138557
146	0xb9974825	-0.00028854716
147	0xba375a63	-0.00069943647
148	0xba91a697	-0.001111227
149	0xb928bd2c	-0.000160922
150	0xb9a49a1c	-0.00031395338
151	0x39aa2cb6	0.0003245824
152	0x3a4010b7	0.00073267095
153	0xb8b0b1e9	-8.425472e-05
154	0xba3aad29	-0.000712114
155	0x3957caa6	0.0002057949
156	0x3a366d19	0.0006959006
157	0xb9328e1b	-0.00017028341
158	0xbab90f6c	-0.0014118976
159	0x37d7876d	2.569306e-05
160	0xbab64903	-0.0013907257
161	0x3a4f07d0	0.00078975875
162	0xba04bddf	-0.00050636934
163	0xba699ad0	-0.00089113135
164	0xb908dfbb	-0.00013053317
165	0x3a6280e8	0.00086404243
166	0xba18a7b5	-0.000582333
167	0xba35d531	-0.000693637
168	0x3a666128	0.0008788281
169	0x3a5c7038	0.0008409056
170	0xba0ad0cf	-0.0005295397
171	0x3926afb9	0.00015896455
172	0x397a0d1d	0.00023846743
173	0xb9afdbe5	-0.00033542435
174	0xb997f214	-0.00028981327
175	0xba81ec17	-0.0009912279
176	0x3aa7b2a8	0.0012794333
177	0xba636352	-0.00086741627
178	0x39af2745	0.0003340786
179	0xb806e5dc	-3.2162163e-05
180	0xba4a755b	-0.0007723176
181	0x394bba43	0.00019428977
182	0x39ca577c	0.00038593623
183	0x397663a0	0.00023497501
184	0x3a6a8bdb	0.00089472317
185	0xba3058c5	-0.0006727095
186	0x39764ee3	0.00023489776
187	0xba9ee05b	-0.0012121306
188	0x3a5711d6	0.0008204257
189	0x3aa06817	0.0012238052
190	0xb8cbf39c	-9.72517e-05
191	0x3a9d0e3f	0.0011982395
192	0x3aa6caf1	0.0012725276
193	0xba9cc4d4	-0.0011960515
194	0x3a4d0b47	0.000782181
195	0x39bf832f	0.00036528098
196	0x3aa2557c	0.0012385095
197	0xba608aad	-0.0008565586
198	0x3a7704a3	0.0009422993
199	0xba7a3c6b	-0.0009545746
200	0x3a82a561	0.00099675
201	0xba4fba26	-0.00079241616
202	0x38a1d1aa	7.716131e-05
203	0xba91ce13	-0.0011124037
204	0xba35bf8f	-0.00069331465
205	0x3ab6735c	0.0013919878
206	0xbab62ee4	-0.0013899473
207	0x38b09ee0	8.421927e-05
208	0xbaab4c67	-0.0013069034
209	0x3a48acfe	0.00076551724
210	0xb9b49206	-0.0003444107
211	0xba515fc1	-0.0007986986
212	0xba23abfe	-0.00062435854
213	0x3a911e44	0.0011071642
214	0xba7f553f	-0.00097401807
215	0xba1327c1	-0.0005613529
216	0x3a358f32	0.000692594
217	0x3a5ba276	0.00083783956
218	0xba7a1266	-0.0009539485
219	0x3abc67b7	0.0014374171
220	0x3a7966ca	0.0009513913
221	0xbaaadfae	-0.0013036632
222	0x3aacfada	0.0013197318
223	0xba46ac2d	-0.0007578757
224	0x3a89b8b1	0.0010507313
225	0xba8b2b86	-0.0010617829
226	0x39b24441	0.0003400166
227	0x399b1986	0.0002958292
228	0x3a118132	0.00055505626
229	0x3a4bd549	0.00077756174
230	0x3a33bcde	0.00068564515
231	0x3a95667f	0.0011398344
232	0x3a6adfdc	0.0008959749
233	0xba2a34cb	-0.0006492852
234	0x39524215	0.00020051778
235	0xba95a3be	-0.0011416597
236	0xba076ca6	-0.0005166031
237	0x397d2e3b	0.00024145182
238	0xb9392cd0	-0.00017659669
239	0x3aa5bf7f	0.0012645571
240	0x3a90a19e	0.0011034494
241	0xb8ca43f7	-9.64477e-05
242	0x3ab7d454	0.0014025071
243	0x3a09067e	0.00052271027
244	0x3aaa5181	0.0012994261
245	0xba14084f	-0.000564699
246	0xba83977b	-0.0010039652
247	0xb8deac08	-0.00010617828
248	0x3a9942a1	0.0011692831
249	0x3a7118a6	0.00091970933
250	0xb88ac80f	-6.6176166e-05
251	0xbab6da37	-0.0013950531
252	0xb8529106	-5.0202965e-05
253	0x39206bf1	0.00015299
254	0xbaa95c53	-0.0012921192
255	0x398d6ec6	0.00026976148

base_model.model.gpt_neox.layers.3.attention.query_key_value.lora_A.weight f4 [16, 512]
0	0xbd00e18d	-0.031465102
1	0x3d118165	0.03552379
2	0x3b1b298a	0.0023675882
3	0xbcc6be63	-0.024260705
4	0x3c8bc7d7	0.017063065
5	0xbc23dff9	-0.01000213
6	0xbcec748c	-0.028864168
7	0x3d221f52	0.03958065
8	0x3c48a9c0	0.012247503
9	0xbc2c1fc5	-0.010505621
10	0x3d06c69a	0.032904245
11	0x3c9511a5	0.01819689
12	0xbcf497cf	-0.029857544
13	0xbcb7fe04	-0.022459991
14	0x3d1d41c6	0.038392805
15	0x3cb2c36d	0.021821702
16	0xbc1cb30e	-0.009564174
17	0xbcab88a6	-0.020939182
18	0xbd1d3290	-0.0383783
19	0xbcc0bf37	-0.023528678
20	0x3c8a03a1	0.016847434
21	0xbd13d699	-0.03609333
22	0x3d0b94d6	0.034077488
23	0x3c613599	0.013745689
24	0xbc669dd5	-0.014075716
25	0x3b9f2d47	0.0048576924
26	0xbcd995ce	-0.02656069
27	0xbccb72eb	-0.02483507
28	0x3ca7a39c	0.020463757
29	0x3cd17e5a	0.025572944
30	0x3d24eeae	0.040266685
31	0xbc065405	-0.008198743
32	0x3ceb21ab	0.028702578
33	0x3ce40a7f	0.027837036
34	0xbc8c61e2	-0.017136518
35	0xbbb47f75	-0.005508358
36	0x3d2219bf	0.039575335
37	0x3b9ccddf	0.004785284
38	0xbd345d87	-0.044034507
39	0xbc585342	-0.013203444
40	0xbc13933a	-0.0090072695
41	0xbb270315	-0.0025484015
42	0xbcecd8ce	-0.028911974
43	0x3c112086	0.008857852
44	0xbd1b685d	-0.037941325
45	0xbc43380b	-0.011915217
46	0x3cbd7c6f	0.023130624
47	0x3ca68361	0.020326318
48	0xbd29de69	-0.041471872
49	0x3cc3fcfd	0.023924345
50	0x3d0650a0	0.032791734
51	0xbcc16b02	-0.023610596
52	0x3cf60b30	0.030034631
53	0xbd08d1d2	-0.033403225
54	0x3a09f697	0.000526288
55	0xbcaeea96	-0.021352094
56	0x3ab74b13	0.0013984166
57	0x3d193f2f	0.037413772
58	0xbd1a988f	-0.037743147
59	0x3cde899f	0.027165232
60	0x3b93173b	0.0044888533
61	0xbc9ded6f	-0.019278256
62	0xbd190250	-0.03735572
63	0xbae9c1eb	-0.0017834281
64	0x3cc4c832	0.024021242
65	0xbc4c5bf1	-0.012473092
66	0x3cda18da	0.026623178
67	0xbc0a41a8	-0.008438505
68	0x3ac92a09	0.001534761
69	0xbca228e5	-0.01979489
70	0xbc4432ea	-0.0119750295
71	0xbbabf26c	-0.005247405
72	0x3d27f995	0.041009504
73	0xbbf86c0b	-0.007581239
74	0x3b9c68a7	0.0047732177
75	0xbc7add2d	-0.0153115215
76	0xbb90dfb6	-0.0044211997
77	0x3cb85479	0.022501217
78	0x3b41cba4	0.0029570842
79	0xba8cddbf	-0.0010747238
80	0xbc8aca1d	-0.016942078
81	0x3cc0a90a	0.023518104
82	0xbd0e8cd7	-0.034802284
83	0xbd212302	-0.039340027
84	0xbcd58828	-0.0260659
85	0xbd0a63c2	-0.033786543
86	0xbc3e2b86	-0.0116070565
87	0xbaf41363	-0.00186215
88	0x3bb84e25	0.00562455
89	0x3d13c407	0.036075618
90	0x3cc12bf0	0.023580521
91	0xbc29f3f3	-0.010373103
92	0x3d0dad54	0.034589127
93	0xbd28c6af	-0.041205104
94	0xbcda5def	-0.02665612
95	0x3cc085a0	0.023501217
96	0x3c4bc3d0	0.012436822
97	0x3cd34ed9	0.025794433
98	0xbd1778db	-0.03698049
99	0x3d20d7dc	0.03926836
100	0xbc0cd953	-0.008596736
101	0x3c837e5d	0.016051466
102	0x3bd54d57	0.006509464
103	0x3ceb3985	0.02871395
104	0x3bb5dd5e	0.0055500707
105	0x3c9f04ea	0.019411523
106	0xbcf93229	-0.030419426
107	0xbc54509e	-0.012958674
108	0xbc2734fc	-0.010205504
109	0x3d276380	0.040866375
110	0x3ca42fe1	0.020042362
111	0xbc981e9e	-0.018569287
112	0x3d3020e6	0.043000124
113	0xbce707c2	-0.028201941
114	0xbd0ccc91	-0.034374777
115	0xbc4ef0c4	-0.012630645
116	0xbd303038	-0.043014735
117	0x3c61df83	0.0137861995
118	0xbd1478d4	-0.036248043
119	0x3d15b6f8	0.036551446
120	0x3d271d31	0.040799323
121	0x3d2e5970	0.042565763
122	0x3cf94f63	0.030433362
123	0x3c663746	0.014051264
124	0xbd327c54	-0.0435756
125	0xbd2829d4	-0.041055515
126	0xbc7e6481	-0.015526892
127	0xbd0b9f6e	-0.03408759
128	0x3cd80592	0.026369844
129	0x3d00951d	0.031392206
130	0xbbc31bb6	-0.005954231
131	0x3d2f9631	0.042867843
132	0xbd137c2e	-0.0360071
133	0xbd377532	-0.0447895
134	0xbd275522	-0.040852673
135	0x3ccfca5c	0.025365047
136	0x3d030849	0.031990323
137	0xbccb8b15	-0.024846593
138	0x3b63a1e6	0.003473395
139	0xb94a3b3a	-0.00019286285
140	0x3d33f521	0.043934945
141	0x3cd6539d	0.026162917
142	0x3c2d45e8	0.010575749
143	0x3ca57e94	0.020201959
144	0x3d1ab9dd	0.03777491
145	0x3ce39be6	0.0277843
146	0x3c1841fa	0.009293074
147	0xbcd864e5	-0.026415298
148	0xbccae577	-0.02476762
149	0xbc7d63a5	-0.015465652
150	0x3cded3ad	0.027200544
151	0xba838e35	-0.0010036888
152	0x3d2f68e9	0.04282466
153	0xbd02c7d5	-0.031928856
154	0xbcc97112	-0.024590049
155	0xbce4d855	-0.027935186
156	0xbc17594e	-0.0092376005
157	0xbc86a212	-0.016434703
158	0xbab2deb4	-0.0013646693
159	0xbc6520b3	-0.013984847
160	0x3cbdceaa	0.023169834
161	0x3d1fc49b	0.039005857
162	0xbc90eda2	-0.017691437
163	0x3c965d6f	0.0183551
164	0x3d23d01a	0.039993383
165	0x3cf99e42	0.030470971
166	0x3c526082	0.012840392
167	0x3d1a8e36	0.03773328
168	0xbd010895	-0.031502325
169	0xbd2b6c71	-0.041851465
170	0x3cd4e1ce	0.025986578
171	0x39f6d255	0.00047077486
172	0xbd01b0d6	-0.031662785
173	0x3b139a6d	0.0022522465
174	0xbbe45b55	-0.0069688954
175	0xbd23ed2a	-0.0400211
176	0x3c8ce5a1	0.01719934
177	0x3d286039	0.04110739
178	0x3b2cefac	0.0026387973
179	0x3d0cf673	0.03441472
180	0x3c4ba479	0.01242935
181	0x3c848cd9	0.016180443
182	0xbd17102f	-0.03688067
183	0xbc19d418	-0.009388946
184	0x3d262f0a	0.040572204
185	0x3c919d0e	0.017775085
186	0xbd335084	-0.043777958
187	0x3cf97883	0.030452972
188	0xbc702c6a	-0.014659027
189	0xbcc899b5	-0.024487356
190	0x3d030232	0.031984515
191	0xbd097145	-0.033555288
192	0x3d14a770	0.036292493
193	0x39d4bbca	0.00040575705
194	0x3ce6dd59	0.028181719
195	0x3ce095cf	0.027415184
196	0xbd0a5241	-0.03376985
197	0x3c701219	0.014652752
198	0x3d271cb4	0.040798858
199	0x3b3c6317	0.0028745586
200	0x3c7c56ab	0.015401523
201	0xbcc42a56	-0.023945969
202	0x3c68be27	0.014205492
203	0xbd1d028b	-0.038332503
204	0x3bdc10e7	0.006715882
205	0xbd073b21	-0.033015374
206	0xbc8960cc	-0.01676979
207	0xbc1cbde5	-0.009566759
208	0x3d076b02	0.033061035
209	0x3b710b6e	0.0036780494
210	0x3cf8c767	0.03036852
211	0xbbb43ec5	-0.005500647
212	0x3d22c61c	0.039739713
213	0xbca4f2c5	-0.020135293
214	0xbd226a34	-0.039652064
215	0x3c277e42	0.010222973
216	0xbcb219f8	-0.021740898
217	0xbca18085	-0.019714603
218	0x3d0aa269	0.033846293
219	0xba1637c9	-0.00057303585
220	0x3c4f9bec	0.012671452
221	0x3cdae8bd	0.026722306
222	0x3cfbf29a	0.03075533
223	0xbd2ccff5	-0.04219051
224	0xbcd1d076	-0.025612097
225	0x3d2457cb	0.04012279
226	0x3c9a83fe	0.018861767
227	0xbc08e97b	-0.008356447
228	0xbd282a9a	-0.041056253
229	0xbbcc6a8a	-0.0062382864
230	0x3cd75885	0.026287327
231	0xbbab8244	-0.0052340347
232	0xbcb21352	-0.021737728
233	0xbc7faf4f	-0.015605762
234	0xbd13c994	-0.03608091
235	0x3bdbbf54	0.0067061577
236	0xbab3baaf	-0.0013712252
237	0xbce688eb	-0.02814146
238	0xbbe40cbe	-0.006959527
239	0x3d25c9f5	0.040475804
240	0x3b0bacba	0.002131267
241	0x3c1708df	0.009218424
242	0x3d1c3905	0.038140316
243	0x3cda984c	0.026683949
244	0x3ceba24f	0.028763918
245	0x3cc460c2	0.023971919
246	0xbd0956c8	-0.033530027
247	0xbc42f538	-0.011899285
248	0x3c12e3bf	0.008965432
249	0xbc58cdda	-0.013232673
250	0x3ce61175	0.028084496
251	0xbc8f90b8	-0.017525062
252	0x3b924d62	0.004464791
253	0xbd2369be	-0.039895765
254	0xbd067b75	-0.03283258
255	0x395e8dfb	0.00021224462
